…
2024-12-14 19:51:26,681 [INFO ] Val data GraphData(x=[8037, 1], edge_index=[2, 8075], edge_attr=[8075, 5], y=[8075], readout='edge', loss_fn='ce', num_nodes=8037, timestamps=[8075])
2024-12-14 19:51:26,681 [INFO ] Val inds tensor([6020, 6021, 6022,  ..., 8072, 8073, 8074])
2024-12-14 19:51:26,794 [INFO ] +-----------------------+---------------------------------+----------------+----------+
| Layer                 | Input Shape                     | Output Shape   | #Param   |
|-----------------------+---------------------------------+----------------+----------|
| RGCN                  | [6931, 1], [2, 6020], [6020, 4] | [6020, 2]      | 90,543   |
| ├─(node_emb)Linear    | [6931, 1]                       | [6931, 66]     | 132      |
| ├─(edge_emb)Linear    | [6020, 4]                       | [6020, 66]     | 330      |
| ├─(convs)ModuleList   | --                              | --             | 78,540   |
| │    └─(0)RGCNConv    | [6931, 66], [2, 6020], [6020]   | [6931, 66]     | 39,270   |
| │    └─(1)RGCNConv    | [6931, 66], [2, 6020], [6020]   | [6931, 66]     | 39,270   |
| ├─(bns)ModuleList     | --                              | --             | 264      |
| │    └─(0)BatchNorm1d | [6931, 66]                      | [6931, 66]     | 132      |
| │    └─(1)BatchNorm1d | [6931, 66]                      | [6931, 66]     | 132      |
| ├─(mlp)Sequential     | [6020, 198]                     | [6020, 2]      | 11,277   |
| │    └─(0)Linear      | [6020, 198]                     | [6020, 50]     | 9,950    |
| │    └─(1)ReLU        | [6020, 50]                      | [6020, 50]     | --       |
| │    └─(2)Dropout     | [6020, 50]                      | [6020, 50]     | --       |
| │    └─(3)Linear      | [6020, 50]                      | [6020, 25]     | 1,275    |
| │    └─(4)ReLU        | [6020, 25]                      | [6020, 25]     | --       |
| │    └─(5)Dropout     | [6020, 25]                      | [6020, 25]     | --       |
| │    └─(6)Linear      | [6020, 25]                      | [6020, 2]      | 52       |
+-----------------------+---------------------------------+----------------+----------+
2024-12-14 19:51:26,990 [INFO ] Train F1: 0.3175
2024-12-14 19:51:27,047 [INFO ] Validation F1: 0.4508
2024-12-14 19:51:27,047 [INFO ] Test F1: 0.4550
2024-12-14 19:51:27,135 [INFO ] Train F1: 0.4674
2024-12-14 19:51:27,192 [INFO ] Validation F1: 0.4508
2024-12-14 19:51:27,192 [INFO ] Test F1: 0.4548
2024-12-14 19:51:27,274 [INFO ] Train F1: 0.4674
…
