…
2024-12-14 19:47:11,441 [INFO ] Val data GraphData(x=[115, 1], edge_index=[2, 17928], edge_attr=[17928, 5], y=[17928], readout='edge', loss_fn='ce', num_nodes=115, timestamps=[17928])
2024-12-14 19:47:11,442 [INFO ] Val inds tensor([13024, 13025, 13026,  ..., 17925, 17926, 17927])
2024-12-14 19:47:11,540 [INFO ] +---------------------------------+----------------------------------+----------------+----------+
| Layer                           | Input Shape                      | Output Shape   | #Param   |
|---------------------------------+----------------------------------+----------------+----------|
| GATe                            | [113, 1], [2, 2115], [2115, 4]   | [2115, 2]      | 28,577   |
| ├─(node_emb)Linear              | [113, 1]                         | [113, 64]      | 128      |
| ├─(edge_emb)Linear              | [2115, 4]                        | [2115, 64]     | 320      |
| ├─(convs)ModuleList             | --                               | --             | 16,896   |
| │    └─(0)GATConv               | [113, 64], [2, 2115], [2115, 64] | [113, 64]      | 8,448    |
| │    └─(1)GATConv               | [113, 64], [2, 2115], [2115, 64] | [113, 64]      | 8,448    |
| ├─(emlps)ModuleList             | --                               | --             | --       |
| ├─(batch_norms)ModuleList       | --                               | --             | 256      |
| │    └─(0)BatchNorm             | [113, 64]                        | [113, 64]      | 128      |
| │    │    └─(module)BatchNorm1d | [113, 64]                        | [113, 64]      | 128      |
| │    └─(1)BatchNorm             | [113, 64]                        | [113, 64]      | 128      |
| │    │    └─(module)BatchNorm1d | [113, 64]                        | [113, 64]      | 128      |
| ├─(mlp)Sequential               | [2115, 192]                      | [2115, 2]      | 10,977   |
| │    └─(0)Linear                | [2115, 192]                      | [2115, 50]     | 9,650    |
| │    └─(1)ReLU                  | [2115, 50]                       | [2115, 50]     | --       |
| │    └─(2)Dropout               | [2115, 50]                       | [2115, 50]     | --       |
| │    └─(3)Linear                | [2115, 50]                       | [2115, 25]     | 1,275    |
| │    └─(4)ReLU                  | [2115, 25]                       | [2115, 25]     | --       |
| │    └─(5)Dropout               | [2115, 25]                       | [2115, 25]     | --       |
| │    └─(6)Linear                | [2115, 25]                       | [2115, 2]      | 52       |
+---------------------------------+----------------------------------+----------------+----------+
2024-12-14 19:47:11,650 [INFO ] Train F1: 0.5750
2024-12-14 19:47:11,686 [INFO ] Validation F1: 0.2442
2024-12-14 19:47:11,686 [INFO ] Test F1: 0.4820
2024-12-14 19:47:11,738 [INFO ] Train F1: 0.5934
2024-12-14 19:47:11,765 [INFO ] Validation F1: 0.2360
2024-12-14 19:47:11,765 [INFO ] Test F1: 0.4670
…
