…
2024-12-14 20:58:19,859 [INFO ] Val data GraphData(x=[8037, 1], edge_index=[2, 8075], edge_attr=[8075, 5], y=[8075], readout='edge', loss_fn='ce', num_nodes=8037, timestamps=[8075])
2024-12-14 20:58:19,861 [INFO ] Val inds tensor([6020, 6021, 6022,  ..., 8072, 8073, 8074])
2024-12-14 20:58:20,027 [INFO ] +---------------------------------+-----------------------------------+----------------+----------+
| Layer                           | Input Shape                       | Output Shape   | #Param   |
|---------------------------------+-----------------------------------+----------------+----------|
| GATe                            | [5878, 1], [2, 5183], [5183, 4]   | [5183, 2]      | 28,577   |
| ├─(node_emb)Linear              | [5878, 1]                         | [5878, 64]     | 128      |
| ├─(edge_emb)Linear              | [5183, 4]                         | [5183, 64]     | 320      |
| ├─(convs)ModuleList             | --                                | --             | 16,896   |
| │    └─(0)GATConv               | [5878, 64], [2, 5183], [5183, 64] | [5878, 64]     | 8,448    |
| │    └─(1)GATConv               | [5878, 64], [2, 5183], [5183, 64] | [5878, 64]     | 8,448    |
| ├─(emlps)ModuleList             | --                                | --             | --       |
| ├─(batch_norms)ModuleList       | --                                | --             | 256      |
| │    └─(0)BatchNorm             | [5878, 64]                        | [5878, 64]     | 128      |
| │    │    └─(module)BatchNorm1d | [5878, 64]                        | [5878, 64]     | 128      |
| │    └─(1)BatchNorm             | [5878, 64]                        | [5878, 64]     | 128      |
| │    │    └─(module)BatchNorm1d | [5878, 64]                        | [5878, 64]     | 128      |
| ├─(mlp)Sequential               | [5183, 192]                       | [5183, 2]      | 10,977   |
| │    └─(0)Linear                | [5183, 192]                       | [5183, 50]     | 9,650    |
| │    └─(1)ReLU                  | [5183, 50]                        | [5183, 50]     | --       |
| │    └─(2)Dropout               | [5183, 50]                        | [5183, 50]     | --       |
| │    └─(3)Linear                | [5183, 50]                        | [5183, 25]     | 1,275    |
| │    └─(4)ReLU                  | [5183, 25]                        | [5183, 25]     | --       |
| │    └─(5)Dropout               | [5183, 25]                        | [5183, 25]     | --       |
| │    └─(6)Linear                | [5183, 25]                        | [5183, 2]      | 52       |
+---------------------------------+-----------------------------------+----------------+----------+
2024-12-14 20:58:20,261 [INFO ] Train F1: 0.0419
2024-12-14 20:58:20,330 [INFO ] Validation F1: 0.4047
2024-12-14 20:58:20,330 [INFO ] Test F1: 0.4115
2024-12-14 20:58:20,441 [INFO ] Train F1: 0.4059
2024-12-14 20:58:20,497 [INFO ] Validation F1: 0.4509
2024-12-14 20:58:20,497 [INFO ] Test F1: 0.4548
…
