…
2024-12-14 21:07:36,751 [INFO ] Val data GraphData(x=[115, 1], edge_index=[2, 17928], edge_attr=[17928, 5], y=[17928], readout='edge', loss_fn='ce', num_nodes=115, timestamps=[17928])
2024-12-14 21:07:36,752 [INFO ] Val inds tensor([13024, 13025, 13026,  ..., 17925, 17926, 17927])
2024-12-14 21:07:36,840 [INFO ] +-----------------------+--------------------------------+----------------+----------+
| Layer                 | Input Shape                    | Output Shape   | #Param   |
|-----------------------+--------------------------------+----------------+----------|
| RGCN                  | [111, 1], [2, 2111], [2111, 4] | [2111, 2]      | 90,543   |
| ├─(node_emb)Linear    | [111, 1]                       | [111, 66]      | 132      |
| ├─(edge_emb)Linear    | [2111, 4]                      | [2111, 66]     | 330      |
| ├─(convs)ModuleList   | --                             | --             | 78,540   |
| │    └─(0)RGCNConv    | [111, 66], [2, 2111], [2111]   | [111, 66]      | 39,270   |
| │    └─(1)RGCNConv    | [111, 66], [2, 2111], [2111]   | [111, 66]      | 39,270   |
| ├─(bns)ModuleList     | --                             | --             | 264      |
| │    └─(0)BatchNorm1d | [111, 66]                      | [111, 66]      | 132      |
| │    └─(1)BatchNorm1d | [111, 66]                      | [111, 66]      | 132      |
| ├─(mlp)Sequential     | [2111, 198]                    | [2111, 2]      | 11,277   |
| │    └─(0)Linear      | [2111, 198]                    | [2111, 50]     | 9,950    |
| │    └─(1)ReLU        | [2111, 50]                     | [2111, 50]     | --       |
| │    └─(2)Dropout     | [2111, 50]                     | [2111, 50]     | --       |
| │    └─(3)Linear      | [2111, 50]                     | [2111, 25]     | 1,275    |
| │    └─(4)ReLU        | [2111, 25]                     | [2111, 25]     | --       |
| │    └─(5)Dropout     | [2111, 25]                     | [2111, 25]     | --       |
| │    └─(6)Linear      | [2111, 25]                     | [2111, 2]      | 52       |
+-----------------------+--------------------------------+----------------+----------+
2024-12-14 21:07:37,029 [INFO ] Train F1: 0.5699
2024-12-14 21:07:37,085 [INFO ] Validation F1: 0.2462
2024-12-14 21:07:37,085 [INFO ] Test F1: 0.4611
2024-12-14 21:07:37,183 [INFO ] Train F1: 0.5865
2024-12-14 21:07:37,229 [INFO ] Validation F1: 0.2497
2024-12-14 21:07:37,229 [INFO ] Test F1: 0.4711
2024-12-14 21:07:37,342 [INFO ] Train F1: 0.5783
…
