…
2024-12-14 21:08:22,710 [INFO ] Val data GraphData(x=[115, 1], edge_index=[2, 17928], edge_attr=[17928, 5], y=[17928], readout='edge', loss_fn='ce', num_nodes=115, timestamps=[17928])
2024-12-14 21:08:22,710 [INFO ] Val inds tensor([13024, 13025, 13026,  ..., 17925, 17926, 17927])
2024-12-14 21:08:22,847 [INFO ] +---------------------------------+----------------------------------+----------------+----------+
| Layer                           | Input Shape                      | Output Shape   | #Param   |
|---------------------------------+----------------------------------+----------------+----------|
| PNA                             | [111, 1], [2, 2111], [2111, 4]   | [2111, 2]      | 28,917   |
| ├─(node_emb)Linear              | [111, 1]                         | [111, 20]      | 40       |
| ├─(edge_emb)Linear              | [2111, 4]                        | [2111, 20]     | 100      |
| ├─(convs)ModuleList             | --                               | --             | 24,320   |
| │    └─(0)PNAConv               | [111, 20], [2, 2111], [2111, 20] | [111, 20]      | 12,160   |
| │    └─(1)PNAConv               | [111, 20], [2, 2111], [2111, 20] | [111, 20]      | 12,160   |
| ├─(emlps)ModuleList             | --                               | --             | --       |
| ├─(batch_norms)ModuleList       | --                               | --             | 80       |
| │    └─(0)BatchNorm             | [111, 20]                        | [111, 20]      | 40       |
| │    │    └─(module)BatchNorm1d | [111, 20]                        | [111, 20]      | 40       |
| │    └─(1)BatchNorm             | [111, 20]                        | [111, 20]      | 40       |
| │    │    └─(module)BatchNorm1d | [111, 20]                        | [111, 20]      | 40       |
| ├─(mlp)Sequential               | [2111, 60]                       | [2111, 2]      | 4,377    |
| │    └─(0)Linear                | [2111, 60]                       | [2111, 50]     | 3,050    |
| │    └─(1)ReLU                  | [2111, 50]                       | [2111, 50]     | --       |
| │    └─(2)Dropout               | [2111, 50]                       | [2111, 50]     | --       |
| │    └─(3)Linear                | [2111, 50]                       | [2111, 25]     | 1,275    |
| │    └─(4)ReLU                  | [2111, 25]                       | [2111, 25]     | --       |
| │    └─(5)Dropout               | [2111, 25]                       | [2111, 25]     | --       |
| │    └─(6)Linear                | [2111, 25]                       | [2111, 2]      | 52       |
+---------------------------------+----------------------------------+----------------+----------+
2024-12-14 21:08:23,141 [INFO ] Train F1: 0.5898
2024-12-14 21:08:23,221 [INFO ] Validation F1: 0.2382
2024-12-14 21:08:23,221 [INFO ] Test F1: 0.4770
2024-12-14 21:08:23,374 [INFO ] Train F1: 0.5893
2024-12-14 21:08:23,423 [INFO ] Validation F1: 0.2418
2024-12-14 21:08:23,424 [INFO ] Test F1: 0.4791
…
