…
2024-12-14 20:57:39,254 [INFO ] Val data GraphData(x=[8037, 1], edge_index=[2, 8075], edge_attr=[8075, 5], y=[8075], readout='edge', loss_fn='ce', num_nodes=8037, timestamps=[8075])
2024-12-14 20:57:39,255 [INFO ] Val inds tensor([6020, 6021, 6022,  ..., 8072, 8073, 8074])
2024-12-14 20:57:39,392 [INFO ] +---------------------------------+-----------------------------------+----------------+----------+
| Layer                           | Input Shape                       | Output Shape   | #Param   |
|---------------------------------+-----------------------------------+----------------+----------|
| GINe                            | [5878, 1], [2, 5183], [5183, 4]   | [5183, 2]      | 38,535   |
| ├─(node_emb)Linear              | [5878, 1]                         | [5878, 66]     | 132      |
| ├─(edge_emb)Linear              | [5183, 4]                         | [5183, 66]     | 330      |
| ├─(convs)ModuleList             | --                                | --             | 26,532   |
| │    └─(0)GINEConv              | [5878, 66], [2, 5183], [5183, 66] | [5878, 66]     | 13,266   |
| │    └─(1)GINEConv              | [5878, 66], [2, 5183], [5183, 66] | [5878, 66]     | 13,266   |
| ├─(emlps)ModuleList             | --                                | --             | --       |
| ├─(batch_norms)ModuleList       | --                                | --             | 264      |
| │    └─(0)BatchNorm             | [5878, 66]                        | [5878, 66]     | 132      |
| │    │    └─(module)BatchNorm1d | [5878, 66]                        | [5878, 66]     | 132      |
| │    └─(1)BatchNorm             | [5878, 66]                        | [5878, 66]     | 132      |
| │    │    └─(module)BatchNorm1d | [5878, 66]                        | [5878, 66]     | 132      |
| ├─(mlp)Sequential               | [5183, 198]                       | [5183, 2]      | 11,277   |
| │    └─(0)Linear                | [5183, 198]                       | [5183, 50]     | 9,950    |
| │    └─(1)ReLU                  | [5183, 50]                        | [5183, 50]     | --       |
| │    └─(2)Dropout               | [5183, 50]                        | [5183, 50]     | --       |
| │    └─(3)Linear                | [5183, 50]                        | [5183, 25]     | 1,275    |
| │    └─(4)ReLU                  | [5183, 25]                        | [5183, 25]     | --       |
| │    └─(5)Dropout               | [5183, 25]                        | [5183, 25]     | --       |
| │    └─(6)Linear                | [5183, 25]                        | [5183, 2]      | 52       |
+---------------------------------+-----------------------------------+----------------+----------+
2024-12-14 20:57:39,610 [INFO ] Train F1: 0.4664
2024-12-14 20:57:39,648 [INFO ] Validation F1: 0.4508
2024-12-14 20:57:39,648 [INFO ] Test F1: 0.4548
2024-12-14 20:57:39,718 [INFO ] Train F1: 0.4674
2024-12-14 20:57:39,755 [INFO ] Validation F1: 0.4508
2024-12-14 20:57:39,755 [INFO ] Test F1: 0.4548
…
