…
2024-12-14 20:55:05,929 [INFO ] Val data GraphData(x=[8037, 1], edge_index=[2, 8075], edge_attr=[8075, 5], y=[8075], readout='edge', loss_fn='ce', num_nodes=8037, timestamps=[8075])
2024-12-14 20:55:05,929 [INFO ] Val inds tensor([6020, 6021, 6022,  ..., 8072, 8073, 8074])
2024-12-14 20:55:06,106 [INFO ] +---------------------------------+-----------------------------------+----------------+----------+
| Layer                           | Input Shape                       | Output Shape   | #Param   |
|---------------------------------+-----------------------------------+----------------+----------|
| PNA                             | [6931, 1], [2, 6020], [6020, 4]   | [6020, 2]      | 28,917   |
| ├─(node_emb)Linear              | [6931, 1]                         | [6931, 20]     | 40       |
| ├─(edge_emb)Linear              | [6020, 4]                         | [6020, 20]     | 100      |
| ├─(convs)ModuleList             | --                                | --             | 24,320   |
| │    └─(0)PNAConv               | [6931, 20], [2, 6020], [6020, 20] | [6931, 20]     | 12,160   |
| │    └─(1)PNAConv               | [6931, 20], [2, 6020], [6020, 20] | [6931, 20]     | 12,160   |
| ├─(emlps)ModuleList             | --                                | --             | --       |
| ├─(batch_norms)ModuleList       | --                                | --             | 80       |
| │    └─(0)BatchNorm             | [6931, 20]                        | [6931, 20]     | 40       |
| │    │    └─(module)BatchNorm1d | [6931, 20]                        | [6931, 20]     | 40       |
| │    └─(1)BatchNorm             | [6931, 20]                        | [6931, 20]     | 40       |
| │    │    └─(module)BatchNorm1d | [6931, 20]                        | [6931, 20]     | 40       |
| ├─(mlp)Sequential               | [6020, 60]                        | [6020, 2]      | 4,377    |
| │    └─(0)Linear                | [6020, 60]                        | [6020, 50]     | 3,050    |
| │    └─(1)ReLU                  | [6020, 50]                        | [6020, 50]     | --       |
| │    └─(2)Dropout               | [6020, 50]                        | [6020, 50]     | --       |
| │    └─(3)Linear                | [6020, 50]                        | [6020, 25]     | 1,275    |
| │    └─(4)ReLU                  | [6020, 25]                        | [6020, 25]     | --       |
| │    └─(5)Dropout               | [6020, 25]                        | [6020, 25]     | --       |
| │    └─(6)Linear                | [6020, 25]                        | [6020, 2]      | 52       |
+---------------------------------+-----------------------------------+----------------+----------+
2024-12-14 20:55:06,572 [INFO ] Train F1: 0.4670
2024-12-14 20:55:06,669 [INFO ] Validation F1: 0.4508
2024-12-14 20:55:06,669 [INFO ] Test F1: 0.4544
2024-12-14 20:55:06,871 [INFO ] Train F1: 0.4669
2024-12-14 20:55:07,009 [INFO ] Validation F1: 0.4508
2024-12-14 20:55:07,009 [INFO ] Test F1: 0.4548
…
