…
2024-12-14 11:46:30,885 [INFO ] Val data GraphData(x=[8037, 1], edge_index=[2, 8075], edge_attr=[8075, 5], y=[8075], readout='edge', loss_fn='ce', num_nodes=8037, timestamps=[8075])
2024-12-14 11:46:30,886 [INFO ] Val inds tensor([6020, 6021, 6022,  ..., 8072, 8073, 8074])
2024-12-14 11:46:31,088 [INFO ] +---------------------------------+-----------------------------------+----------------+----------+
| Layer                           | Input Shape                       | Output Shape   | #Param   |
|---------------------------------+-----------------------------------+----------------+----------|
| GATe                            | [6931, 1], [2, 6020], [6020, 4]   | [6020, 2]      | 28,577   |
| (node_emb)Linear              | [6931, 1]                         | [6931, 64]     | 128      |
| (edge_emb)Linear              | [6020, 4]                         | [6020, 64]     | 320      |
| (convs)ModuleList             | --                                | --             | 16,896   |
|     (0)GATConv               | [6931, 64], [2, 6020], [6020, 64] | [6931, 64]     | 8,448    |
|     (1)GATConv               | [6931, 64], [2, 6020], [6020, 64] | [6931, 64]     | 8,448    |
| (emlps)ModuleList             | --                                | --             | --       |
| (batch_norms)ModuleList       | --                                | --             | 256      |
|     (0)BatchNorm             | [6931, 64]                        | [6931, 64]     | 128      |
|         (module)BatchNorm1d | [6931, 64]                        | [6931, 64]     | 128      |
|     (1)BatchNorm             | [6931, 64]                        | [6931, 64]     | 128      |
|         (module)BatchNorm1d | [6931, 64]                        | [6931, 64]     | 128      |
| (mlp)Sequential               | [6020, 192]                       | [6020, 2]      | 10,977   |
|     (0)Linear                | [6020, 192]                       | [6020, 50]     | 9,650    |
|     (1)ReLU                  | [6020, 50]                        | [6020, 50]     | --       |
|     (2)Dropout               | [6020, 50]                        | [6020, 50]     | --       |
|     (3)Linear                | [6020, 50]                        | [6020, 25]     | 1,275    |
|     (4)ReLU                  | [6020, 25]                        | [6020, 25]     | --       |
|     (5)Dropout               | [6020, 25]                        | [6020, 25]     | --       |
|     (6)Linear                | [6020, 25]                        | [6020, 2]      | 52       |
+---------------------------------+-----------------------------------+----------------+----------+
2024-12-14 11:46:31,529 [INFO ] Train F1: 0.0033
2024-12-14 11:46:31,577 [INFO ] Validation F1: 0.1244
2024-12-14 11:46:31,577 [INFO ] Test F1: 0.1768
2024-12-14 11:46:31,656 [INFO ] Train F1: 0.1261
2024-12-14 11:46:31,696 [INFO ] Validation F1: 0.4039
2024-12-14 11:46:31,697 [INFO ] Test F1: 0.4101
…
2024-12-14 19:47:11,441 [INFO ] Val data GraphData(x=[115, 1], edge_index=[2, 17928], edge_attr=[17928, 5], y=[17928], readout='edge', loss_fn='ce', num_nodes=115, timestamps=[17928])
2024-12-14 19:47:11,442 [INFO ] Val inds tensor([13024, 13025, 13026,  ..., 17925, 17926, 17927])
2024-12-14 19:47:11,540 [INFO ] +---------------------------------+----------------------------------+----------------+----------+
| Layer                           | Input Shape                      | Output Shape   | #Param   |
|---------------------------------+----------------------------------+----------------+----------|
| GATe                            | [113, 1], [2, 2115], [2115, 4]   | [2115, 2]      | 28,577   |
| (node_emb)Linear              | [113, 1]                         | [113, 64]      | 128      |
| (edge_emb)Linear              | [2115, 4]                        | [2115, 64]     | 320      |
| (convs)ModuleList             | --                               | --             | 16,896   |
|     (0)GATConv               | [113, 64], [2, 2115], [2115, 64] | [113, 64]      | 8,448    |
|     (1)GATConv               | [113, 64], [2, 2115], [2115, 64] | [113, 64]      | 8,448    |
| (emlps)ModuleList             | --                               | --             | --       |
| (batch_norms)ModuleList       | --                               | --             | 256      |
|     (0)BatchNorm             | [113, 64]                        | [113, 64]      | 128      |
|         (module)BatchNorm1d | [113, 64]                        | [113, 64]      | 128      |
|     (1)BatchNorm             | [113, 64]                        | [113, 64]      | 128      |
|         (module)BatchNorm1d | [113, 64]                        | [113, 64]      | 128      |
| (mlp)Sequential               | [2115, 192]                      | [2115, 2]      | 10,977   |
|     (0)Linear                | [2115, 192]                      | [2115, 50]     | 9,650    |
|     (1)ReLU                  | [2115, 50]                       | [2115, 50]     | --       |
|     (2)Dropout               | [2115, 50]                       | [2115, 50]     | --       |
|     (3)Linear                | [2115, 50]                       | [2115, 25]     | 1,275    |
|     (4)ReLU                  | [2115, 25]                       | [2115, 25]     | --       |
|     (5)Dropout               | [2115, 25]                       | [2115, 25]     | --       |
|     (6)Linear                | [2115, 25]                       | [2115, 2]      | 52       |
+---------------------------------+----------------------------------+----------------+----------+
2024-12-14 19:47:11,650 [INFO ] Train F1: 0.5750
2024-12-14 19:47:11,686 [INFO ] Validation F1: 0.2442
2024-12-14 19:47:11,686 [INFO ] Test F1: 0.4820
2024-12-14 19:47:11,738 [INFO ] Train F1: 0.5934
2024-12-14 19:47:11,765 [INFO ] Validation F1: 0.2360
2024-12-14 19:47:11,765 [INFO ] Test F1: 0.4670
…
2024-12-14 19:47:51,920 [INFO ] Val data GraphData(x=[8037, 1], edge_index=[2, 8075], edge_attr=[8075, 7], y=[8075], readout='edge', loss_fn='ce', num_nodes=8037, timestamps=[8075])
2024-12-14 19:47:51,920 [INFO ] Val inds tensor([6020, 6021, 6022,  ..., 8072, 8073, 8074])
2024-12-14 19:47:52,073 [INFO ] +---------------------------------+-----------------------------------+----------------+----------+
| Layer                           | Input Shape                       | Output Shape   | #Param   |
|---------------------------------+-----------------------------------+----------------+----------|
| GINe                            | [5878, 1], [2, 5183], [5183, 6]   | [5183, 2]      | 73,779   |
| (node_emb)Linear              | [5878, 1]                         | [5878, 66]     | 132      |
| (edge_emb)Linear              | [5183, 6]                         | [5183, 66]     | 462      |
| (convs)ModuleList             | --                                | --             | 26,532   |
|     (0)GINEConv              | [5878, 66], [2, 5183], [5183, 66] | [5878, 66]     | 13,266   |
|     (1)GINEConv              | [5878, 66], [2, 5183], [5183, 66] | [5878, 66]     | 13,266   |
| (emlps)ModuleList             | --                                | --             | 35,112   |
|     (0)Sequential            | [5183, 198]                       | [5183, 66]     | 17,556   |
|         (0)Linear           | [5183, 198]                       | [5183, 66]     | 13,134   |
|         (1)ReLU             | [5183, 66]                        | [5183, 66]     | --       |
|         (2)Linear           | [5183, 66]                        | [5183, 66]     | 4,422    |
|     (1)Sequential            | [5183, 198]                       | [5183, 66]     | 17,556   |
|         (0)Linear           | [5183, 198]                       | [5183, 66]     | 13,134   |
|         (1)ReLU             | [5183, 66]                        | [5183, 66]     | --       |
|         (2)Linear           | [5183, 66]                        | [5183, 66]     | 4,422    |
| (batch_norms)ModuleList       | --                                | --             | 264      |
|     (0)BatchNorm             | [5878, 66]                        | [5878, 66]     | 132      |
|         (module)BatchNorm1d | [5878, 66]                        | [5878, 66]     | 132      |
|     (1)BatchNorm             | [5878, 66]                        | [5878, 66]     | 132      |
|         (module)BatchNorm1d | [5878, 66]                        | [5878, 66]     | 132      |
| (mlp)Sequential               | [5183, 198]                       | [5183, 2]      | 11,277   |
|     (0)Linear                | [5183, 198]                       | [5183, 50]     | 9,950    |
|     (1)ReLU                  | [5183, 50]                        | [5183, 50]     | --       |
|     (2)Dropout               | [5183, 50]                        | [5183, 50]     | --       |
|     (3)Linear                | [5183, 50]                        | [5183, 25]     | 1,275    |
|     (4)ReLU                  | [5183, 25]                        | [5183, 25]     | --       |
|     (5)Dropout               | [5183, 25]                        | [5183, 25]     | --       |
|     (6)Linear                | [5183, 25]                        | [5183, 2]      | 52       |
+---------------------------------+-----------------------------------+----------------+----------+
2024-12-14 19:47:52,398 [INFO ] Train F1: 0.3511
2024-12-14 19:47:52,459 [INFO ] Validation F1: 0.4508
2024-12-14 19:47:52,459 [INFO ] Test F1: 0.4550
2024-12-14 19:47:52,553 [INFO ] Train F1: 0.4675
2024-12-14 19:47:52,594 [INFO ] Validation F1: 0.4508
2024-12-14 19:47:52,594 [INFO ] Test F1: 0.4548
…
2024-12-14 19:51:01,868 [INFO ] Val data GraphData(x=[8037, 1], edge_index=[2, 8075], edge_attr=[8075, 5], y=[8075], readout='edge', loss_fn='ce', num_nodes=8037, timestamps=[8075])
2024-12-14 19:51:01,884 [INFO ] Val inds tensor([6020, 6021, 6022,  ..., 8072, 8073, 8074])
2024-12-14 19:51:02,134 [INFO ] +---------------------------------+-----------------------------------+----------------+----------+
| Layer                           | Input Shape                       | Output Shape   | #Param   |
|---------------------------------+-----------------------------------+----------------+----------|
| GINe                            | [6931, 1], [2, 6020], [6020, 4]   | [6020, 2]      | 38,535   |
| (node_emb)Linear              | [6931, 1]                         | [6931, 66]     | 132      |
| (edge_emb)Linear              | [6020, 4]                         | [6020, 66]     | 330      |
| (convs)ModuleList             | --                                | --             | 26,532   |
|     (0)GINEConv              | [6931, 66], [2, 6020], [6020, 66] | [6931, 66]     | 13,266   |
|     (1)GINEConv              | [6931, 66], [2, 6020], [6020, 66] | [6931, 66]     | 13,266   |
| (emlps)ModuleList             | --                                | --             | --       |
| (batch_norms)ModuleList       | --                                | --             | 264      |
|     (0)BatchNorm             | [6931, 66]                        | [6931, 66]     | 132      |
|         (module)BatchNorm1d | [6931, 66]                        | [6931, 66]     | 132      |
|     (1)BatchNorm             | [6931, 66]                        | [6931, 66]     | 132      |
|         (module)BatchNorm1d | [6931, 66]                        | [6931, 66]     | 132      |
| (mlp)Sequential               | [6020, 198]                       | [6020, 2]      | 11,277   |
|     (0)Linear                | [6020, 198]                       | [6020, 50]     | 9,950    |
|     (1)ReLU                  | [6020, 50]                        | [6020, 50]     | --       |
|     (2)Dropout               | [6020, 50]                        | [6020, 50]     | --       |
|     (3)Linear                | [6020, 50]                        | [6020, 25]     | 1,275    |
|     (4)ReLU                  | [6020, 25]                        | [6020, 25]     | --       |
|     (5)Dropout               | [6020, 25]                        | [6020, 25]     | --       |
|     (6)Linear                | [6020, 25]                        | [6020, 2]      | 52       |
+---------------------------------+-----------------------------------+----------------+----------+
2024-12-14 19:51:02,323 [INFO ] Train F1: 0.4672
2024-12-14 19:51:02,357 [INFO ] Validation F1: 0.4508
2024-12-14 19:51:02,357 [INFO ] Test F1: 0.4548
2024-12-14 19:51:02,413 [INFO ] Train F1: 0.4674
2024-12-14 19:51:02,446 [INFO ] Validation F1: 0.4508
2024-12-14 19:51:02,446 [INFO ] Test F1: 0.4548
…
2024-12-14 19:51:26,681 [INFO ] Val data GraphData(x=[8037, 1], edge_index=[2, 8075], edge_attr=[8075, 5], y=[8075], readout='edge', loss_fn='ce', num_nodes=8037, timestamps=[8075])
2024-12-14 19:51:26,681 [INFO ] Val inds tensor([6020, 6021, 6022,  ..., 8072, 8073, 8074])
2024-12-14 19:51:26,794 [INFO ] +-----------------------+---------------------------------+----------------+----------+
| Layer                 | Input Shape                     | Output Shape   | #Param   |
|-----------------------+---------------------------------+----------------+----------|
| RGCN                  | [6931, 1], [2, 6020], [6020, 4] | [6020, 2]      | 90,543   |
| (node_emb)Linear    | [6931, 1]                       | [6931, 66]     | 132      |
| (edge_emb)Linear    | [6020, 4]                       | [6020, 66]     | 330      |
| (convs)ModuleList   | --                              | --             | 78,540   |
|     (0)RGCNConv    | [6931, 66], [2, 6020], [6020]   | [6931, 66]     | 39,270   |
|     (1)RGCNConv    | [6931, 66], [2, 6020], [6020]   | [6931, 66]     | 39,270   |
| (bns)ModuleList     | --                              | --             | 264      |
|     (0)BatchNorm1d | [6931, 66]                      | [6931, 66]     | 132      |
|     (1)BatchNorm1d | [6931, 66]                      | [6931, 66]     | 132      |
| (mlp)Sequential     | [6020, 198]                     | [6020, 2]      | 11,277   |
|     (0)Linear      | [6020, 198]                     | [6020, 50]     | 9,950    |
|     (1)ReLU        | [6020, 50]                      | [6020, 50]     | --       |
|     (2)Dropout     | [6020, 50]                      | [6020, 50]     | --       |
|     (3)Linear      | [6020, 50]                      | [6020, 25]     | 1,275    |
|     (4)ReLU        | [6020, 25]                      | [6020, 25]     | --       |
|     (5)Dropout     | [6020, 25]                      | [6020, 25]     | --       |
|     (6)Linear      | [6020, 25]                      | [6020, 2]      | 52       |
+-----------------------+---------------------------------+----------------+----------+
2024-12-14 19:51:26,990 [INFO ] Train F1: 0.3175
2024-12-14 19:51:27,047 [INFO ] Validation F1: 0.4508
2024-12-14 19:51:27,047 [INFO ] Test F1: 0.4550
2024-12-14 19:51:27,135 [INFO ] Train F1: 0.4674
2024-12-14 19:51:27,192 [INFO ] Validation F1: 0.4508
2024-12-14 19:51:27,192 [INFO ] Test F1: 0.4548
2024-12-14 19:51:27,274 [INFO ] Train F1: 0.4674
…
2024-12-14 20:55:05,929 [INFO ] Val data GraphData(x=[8037, 1], edge_index=[2, 8075], edge_attr=[8075, 5], y=[8075], readout='edge', loss_fn='ce', num_nodes=8037, timestamps=[8075])
2024-12-14 20:55:05,929 [INFO ] Val inds tensor([6020, 6021, 6022,  ..., 8072, 8073, 8074])
2024-12-14 20:55:06,106 [INFO ] +---------------------------------+-----------------------------------+----------------+----------+
| Layer                           | Input Shape                       | Output Shape   | #Param   |
|---------------------------------+-----------------------------------+----------------+----------|
| PNA                             | [6931, 1], [2, 6020], [6020, 4]   | [6020, 2]      | 28,917   |
| (node_emb)Linear              | [6931, 1]                         | [6931, 20]     | 40       |
| (edge_emb)Linear              | [6020, 4]                         | [6020, 20]     | 100      |
| (convs)ModuleList             | --                                | --             | 24,320   |
|     (0)PNAConv               | [6931, 20], [2, 6020], [6020, 20] | [6931, 20]     | 12,160   |
|     (1)PNAConv               | [6931, 20], [2, 6020], [6020, 20] | [6931, 20]     | 12,160   |
| (emlps)ModuleList             | --                                | --             | --       |
| (batch_norms)ModuleList       | --                                | --             | 80       |
|     (0)BatchNorm             | [6931, 20]                        | [6931, 20]     | 40       |
|         (module)BatchNorm1d | [6931, 20]                        | [6931, 20]     | 40       |
|     (1)BatchNorm             | [6931, 20]                        | [6931, 20]     | 40       |
|         (module)BatchNorm1d | [6931, 20]                        | [6931, 20]     | 40       |
| (mlp)Sequential               | [6020, 60]                        | [6020, 2]      | 4,377    |
|     (0)Linear                | [6020, 60]                        | [6020, 50]     | 3,050    |
|     (1)ReLU                  | [6020, 50]                        | [6020, 50]     | --       |
|     (2)Dropout               | [6020, 50]                        | [6020, 50]     | --       |
|     (3)Linear                | [6020, 50]                        | [6020, 25]     | 1,275    |
|     (4)ReLU                  | [6020, 25]                        | [6020, 25]     | --       |
|     (5)Dropout               | [6020, 25]                        | [6020, 25]     | --       |
|     (6)Linear                | [6020, 25]                        | [6020, 2]      | 52       |
+---------------------------------+-----------------------------------+----------------+----------+
2024-12-14 20:55:06,572 [INFO ] Train F1: 0.4670
2024-12-14 20:55:06,669 [INFO ] Validation F1: 0.4508
2024-12-14 20:55:06,669 [INFO ] Test F1: 0.4544
2024-12-14 20:55:06,871 [INFO ] Train F1: 0.4669
2024-12-14 20:55:07,009 [INFO ] Validation F1: 0.4508
2024-12-14 20:55:07,009 [INFO ] Test F1: 0.4548
…
2024-12-14 20:57:39,254 [INFO ] Val data GraphData(x=[8037, 1], edge_index=[2, 8075], edge_attr=[8075, 5], y=[8075], readout='edge', loss_fn='ce', num_nodes=8037, timestamps=[8075])
2024-12-14 20:57:39,255 [INFO ] Val inds tensor([6020, 6021, 6022,  ..., 8072, 8073, 8074])
2024-12-14 20:57:39,392 [INFO ] +---------------------------------+-----------------------------------+----------------+----------+
| Layer                           | Input Shape                       | Output Shape   | #Param   |
|---------------------------------+-----------------------------------+----------------+----------|
| GINe                            | [5878, 1], [2, 5183], [5183, 4]   | [5183, 2]      | 38,535   |
| (node_emb)Linear              | [5878, 1]                         | [5878, 66]     | 132      |
| (edge_emb)Linear              | [5183, 4]                         | [5183, 66]     | 330      |
| (convs)ModuleList             | --                                | --             | 26,532   |
|     (0)GINEConv              | [5878, 66], [2, 5183], [5183, 66] | [5878, 66]     | 13,266   |
|     (1)GINEConv              | [5878, 66], [2, 5183], [5183, 66] | [5878, 66]     | 13,266   |
| (emlps)ModuleList             | --                                | --             | --       |
| (batch_norms)ModuleList       | --                                | --             | 264      |
|     (0)BatchNorm             | [5878, 66]                        | [5878, 66]     | 132      |
|         (module)BatchNorm1d | [5878, 66]                        | [5878, 66]     | 132      |
|     (1)BatchNorm             | [5878, 66]                        | [5878, 66]     | 132      |
|         (module)BatchNorm1d | [5878, 66]                        | [5878, 66]     | 132      |
| (mlp)Sequential               | [5183, 198]                       | [5183, 2]      | 11,277   |
|     (0)Linear                | [5183, 198]                       | [5183, 50]     | 9,950    |
|     (1)ReLU                  | [5183, 50]                        | [5183, 50]     | --       |
|     (2)Dropout               | [5183, 50]                        | [5183, 50]     | --       |
|     (3)Linear                | [5183, 50]                        | [5183, 25]     | 1,275    |
|     (4)ReLU                  | [5183, 25]                        | [5183, 25]     | --       |
|     (5)Dropout               | [5183, 25]                        | [5183, 25]     | --       |
|     (6)Linear                | [5183, 25]                        | [5183, 2]      | 52       |
+---------------------------------+-----------------------------------+----------------+----------+
2024-12-14 20:57:39,610 [INFO ] Train F1: 0.4664
2024-12-14 20:57:39,648 [INFO ] Validation F1: 0.4508
2024-12-14 20:57:39,648 [INFO ] Test F1: 0.4548
2024-12-14 20:57:39,718 [INFO ] Train F1: 0.4674
2024-12-14 20:57:39,755 [INFO ] Validation F1: 0.4508
2024-12-14 20:57:39,755 [INFO ] Test F1: 0.4548
…
2024-12-14 20:58:19,859 [INFO ] Val data GraphData(x=[8037, 1], edge_index=[2, 8075], edge_attr=[8075, 5], y=[8075], readout='edge', loss_fn='ce', num_nodes=8037, timestamps=[8075])
2024-12-14 20:58:19,861 [INFO ] Val inds tensor([6020, 6021, 6022,  ..., 8072, 8073, 8074])
2024-12-14 20:58:20,027 [INFO ] +---------------------------------+-----------------------------------+----------------+----------+
| Layer                           | Input Shape                       | Output Shape   | #Param   |
|---------------------------------+-----------------------------------+----------------+----------|
| GATe                            | [5878, 1], [2, 5183], [5183, 4]   | [5183, 2]      | 28,577   |
| (node_emb)Linear              | [5878, 1]                         | [5878, 64]     | 128      |
| (edge_emb)Linear              | [5183, 4]                         | [5183, 64]     | 320      |
| (convs)ModuleList             | --                                | --             | 16,896   |
|     (0)GATConv               | [5878, 64], [2, 5183], [5183, 64] | [5878, 64]     | 8,448    |
|     (1)GATConv               | [5878, 64], [2, 5183], [5183, 64] | [5878, 64]     | 8,448    |
| (emlps)ModuleList             | --                                | --             | --       |
| (batch_norms)ModuleList       | --                                | --             | 256      |
|     (0)BatchNorm             | [5878, 64]                        | [5878, 64]     | 128      |
|         (module)BatchNorm1d | [5878, 64]                        | [5878, 64]     | 128      |
|     (1)BatchNorm             | [5878, 64]                        | [5878, 64]     | 128      |
|         (module)BatchNorm1d | [5878, 64]                        | [5878, 64]     | 128      |
| (mlp)Sequential               | [5183, 192]                       | [5183, 2]      | 10,977   |
|     (0)Linear                | [5183, 192]                       | [5183, 50]     | 9,650    |
|     (1)ReLU                  | [5183, 50]                        | [5183, 50]     | --       |
|     (2)Dropout               | [5183, 50]                        | [5183, 50]     | --       |
|     (3)Linear                | [5183, 50]                        | [5183, 25]     | 1,275    |
|     (4)ReLU                  | [5183, 25]                        | [5183, 25]     | --       |
|     (5)Dropout               | [5183, 25]                        | [5183, 25]     | --       |
|     (6)Linear                | [5183, 25]                        | [5183, 2]      | 52       |
+---------------------------------+-----------------------------------+----------------+----------+
2024-12-14 20:58:20,261 [INFO ] Train F1: 0.0419
2024-12-14 20:58:20,330 [INFO ] Validation F1: 0.4047
2024-12-14 20:58:20,330 [INFO ] Test F1: 0.4115
2024-12-14 20:58:20,441 [INFO ] Train F1: 0.4059
2024-12-14 20:58:20,497 [INFO ] Validation F1: 0.4509
2024-12-14 20:58:20,497 [INFO ] Test F1: 0.4548
…
2024-12-14 21:00:05,461 [INFO ] Val data GraphData(x=[8037, 1], edge_index=[2, 8075], edge_attr=[8075, 5], y=[8075], readout='edge', loss_fn='ce', num_nodes=8037, timestamps=[8075])
2024-12-14 21:00:05,462 [INFO ] Val inds tensor([6020, 6021, 6022,  ..., 8072, 8073, 8074])
2024-12-14 21:00:05,623 [INFO ] +-----------------------+---------------------------------+----------------+----------+
| Layer                 | Input Shape                     | Output Shape   | #Param   |
|-----------------------+---------------------------------+----------------+----------|
| RGCN                  | [5878, 1], [2, 5183], [5183, 4] | [5183, 2]      | 90,543   |
| (node_emb)Linear    | [5878, 1]                       | [5878, 66]     | 132      |
| (edge_emb)Linear    | [5183, 4]                       | [5183, 66]     | 330      |
| (convs)ModuleList   | --                              | --             | 78,540   |
|     (0)RGCNConv    | [5878, 66], [2, 5183], [5183]   | [5878, 66]     | 39,270   |
|     (1)RGCNConv    | [5878, 66], [2, 5183], [5183]   | [5878, 66]     | 39,270   |
| (bns)ModuleList     | --                              | --             | 264      |
|     (0)BatchNorm1d | [5878, 66]                      | [5878, 66]     | 132      |
|     (1)BatchNorm1d | [5878, 66]                      | [5878, 66]     | 132      |
| (mlp)Sequential     | [5183, 198]                     | [5183, 2]      | 11,277   |
|     (0)Linear      | [5183, 198]                     | [5183, 50]     | 9,950    |
|     (1)ReLU        | [5183, 50]                      | [5183, 50]     | --       |
|     (2)Dropout     | [5183, 50]                      | [5183, 50]     | --       |
|     (3)Linear      | [5183, 50]                      | [5183, 25]     | 1,275    |
|     (4)ReLU        | [5183, 25]                      | [5183, 25]     | --       |
|     (5)Dropout     | [5183, 25]                      | [5183, 25]     | --       |
|     (6)Linear      | [5183, 25]                      | [5183, 2]      | 52       |
+-----------------------+---------------------------------+----------------+----------+
2024-12-14 21:00:05,939 [INFO ] Train F1: 0.4047
2024-12-14 21:00:06,017 [INFO ] Validation F1: 0.4508
2024-12-14 21:00:06,017 [INFO ] Test F1: 0.4548
2024-12-14 21:00:06,159 [INFO ] Train F1: 0.4674
2024-12-14 21:00:06,258 [INFO ] Validation F1: 0.4508
2024-12-14 21:00:06,258 [INFO ] Test F1: 0.4548
2024-12-14 21:00:06,509 [INFO ] Train F1: 0.4674
…
2024-12-14 21:01:03,581 [INFO ] Val data GraphData(x=[8037, 1], edge_index=[2, 8075], edge_attr=[8075, 5], y=[8075], readout='edge', loss_fn='ce', num_nodes=8037, timestamps=[8075])
2024-12-14 21:01:03,582 [INFO ] Val inds tensor([6020, 6021, 6022,  ..., 8072, 8073, 8074])
2024-12-14 21:01:03,768 [INFO ] +---------------------------------+-----------------------------------+----------------+----------+
| Layer                           | Input Shape                       | Output Shape   | #Param   |
|---------------------------------+-----------------------------------+----------------+----------|
| PNA                             | [5878, 1], [2, 5183], [5183, 4]   | [5183, 2]      | 28,917   |
| (node_emb)Linear              | [5878, 1]                         | [5878, 20]     | 40       |
| (edge_emb)Linear              | [5183, 4]                         | [5183, 20]     | 100      |
| (convs)ModuleList             | --                                | --             | 24,320   |
|     (0)PNAConv               | [5878, 20], [2, 5183], [5183, 20] | [5878, 20]     | 12,160   |
|     (1)PNAConv               | [5878, 20], [2, 5183], [5183, 20] | [5878, 20]     | 12,160   |
| (emlps)ModuleList             | --                                | --             | --       |
| (batch_norms)ModuleList       | --                                | --             | 80       |
|     (0)BatchNorm             | [5878, 20]                        | [5878, 20]     | 40       |
|         (module)BatchNorm1d | [5878, 20]                        | [5878, 20]     | 40       |
|     (1)BatchNorm             | [5878, 20]                        | [5878, 20]     | 40       |
|         (module)BatchNorm1d | [5878, 20]                        | [5878, 20]     | 40       |
| (mlp)Sequential               | [5183, 60]                        | [5183, 2]      | 4,377    |
|     (0)Linear                | [5183, 60]                        | [5183, 50]     | 3,050    |
|     (1)ReLU                  | [5183, 50]                        | [5183, 50]     | --       |
|     (2)Dropout               | [5183, 50]                        | [5183, 50]     | --       |
|     (3)Linear                | [5183, 50]                        | [5183, 25]     | 1,275    |
|     (4)ReLU                  | [5183, 25]                        | [5183, 25]     | --       |
|     (5)Dropout               | [5183, 25]                        | [5183, 25]     | --       |
|     (6)Linear                | [5183, 25]                        | [5183, 2]      | 52       |
+---------------------------------+-----------------------------------+----------------+----------+
2024-12-14 21:01:04,351 [INFO ] Train F1: 0.4672
2024-12-14 21:01:04,566 [INFO ] Validation F1: 0.4508
2024-12-14 21:01:04,566 [INFO ] Test F1: 0.4550
2024-12-14 21:01:05,087 [INFO ] Train F1: 0.4673
2024-12-14 21:01:05,181 [INFO ] Validation F1: 0.4508
2024-12-14 21:01:05,182 [INFO ] Test F1: 0.4548
…
2024-12-14 21:06:07,660 [INFO ] Val data GraphData(x=[115, 1], edge_index=[2, 17928], edge_attr=[17928, 5], y=[17928], readout='edge', loss_fn='ce', num_nodes=115, timestamps=[17928])
2024-12-14 21:06:07,662 [INFO ] Val inds tensor([13024, 13025, 13026,  ..., 17925, 17926, 17927])
2024-12-14 21:06:07,815 [INFO ] +---------------------------------+----------------------------------+----------------+----------+
| Layer                           | Input Shape                      | Output Shape   | #Param   |
|---------------------------------+----------------------------------+----------------+----------|
| GINe                            | [111, 1], [2, 2111], [2111, 4]   | [2111, 2]      | 38,535   |
| (node_emb)Linear              | [111, 1]                         | [111, 66]      | 132      |
| (edge_emb)Linear              | [2111, 4]                        | [2111, 66]     | 330      |
| (convs)ModuleList             | --                               | --             | 26,532   |
|     (0)GINEConv              | [111, 66], [2, 2111], [2111, 66] | [111, 66]      | 13,266   |
|     (1)GINEConv              | [111, 66], [2, 2111], [2111, 66] | [111, 66]      | 13,266   |
| (emlps)ModuleList             | --                               | --             | --       |
| (batch_norms)ModuleList       | --                               | --             | 264      |
|     (0)BatchNorm             | [111, 66]                        | [111, 66]      | 132      |
|         (module)BatchNorm1d | [111, 66]                        | [111, 66]      | 132      |
|     (1)BatchNorm             | [111, 66]                        | [111, 66]      | 132      |
|         (module)BatchNorm1d | [111, 66]                        | [111, 66]      | 132      |
| (mlp)Sequential               | [2111, 198]                      | [2111, 2]      | 11,277   |
|     (0)Linear                | [2111, 198]                      | [2111, 50]     | 9,950    |
|     (1)ReLU                  | [2111, 50]                       | [2111, 50]     | --       |
|     (2)Dropout               | [2111, 50]                       | [2111, 50]     | --       |
|     (3)Linear                | [2111, 50]                       | [2111, 25]     | 1,275    |
|     (4)ReLU                  | [2111, 25]                       | [2111, 25]     | --       |
|     (5)Dropout               | [2111, 25]                       | [2111, 25]     | --       |
|     (6)Linear                | [2111, 25]                       | [2111, 2]      | 52       |
+---------------------------------+----------------------------------+----------------+----------+
2024-12-14 21:06:08,127 [INFO ] Train F1: 0.5817
2024-12-14 21:06:08,183 [INFO ] Validation F1: 0.2431
2024-12-14 21:06:08,183 [INFO ] Test F1: 0.4677
2024-12-14 21:06:08,300 [INFO ] Train F1: 0.5759
2024-12-14 21:06:08,374 [INFO ] Validation F1: 0.2435
2024-12-14 21:06:08,374 [INFO ] Test F1: 0.4727
…
2024-12-14 21:06:51,595 [INFO ] Val data GraphData(x=[115, 1], edge_index=[2, 17928], edge_attr=[17928, 5], y=[17928], readout='edge', loss_fn='ce', num_nodes=115, timestamps=[17928])
2024-12-14 21:06:51,596 [INFO ] Val inds tensor([13024, 13025, 13026,  ..., 17925, 17926, 17927])
2024-12-14 21:06:51,710 [INFO ] +---------------------------------+----------------------------------+----------------+----------+
| Layer                           | Input Shape                      | Output Shape   | #Param   |
|---------------------------------+----------------------------------+----------------+----------|
| GATe                            | [111, 1], [2, 2111], [2111, 4]   | [2111, 2]      | 28,577   |
| (node_emb)Linear              | [111, 1]                         | [111, 64]      | 128      |
| (edge_emb)Linear              | [2111, 4]                        | [2111, 64]     | 320      |
| (convs)ModuleList             | --                               | --             | 16,896   |
|     (0)GATConv               | [111, 64], [2, 2111], [2111, 64] | [111, 64]      | 8,448    |
|     (1)GATConv               | [111, 64], [2, 2111], [2111, 64] | [111, 64]      | 8,448    |
| (emlps)ModuleList             | --                               | --             | --       |
| (batch_norms)ModuleList       | --                               | --             | 256      |
|     (0)BatchNorm             | [111, 64]                        | [111, 64]      | 128      |
|         (module)BatchNorm1d | [111, 64]                        | [111, 64]      | 128      |
|     (1)BatchNorm             | [111, 64]                        | [111, 64]      | 128      |
|         (module)BatchNorm1d | [111, 64]                        | [111, 64]      | 128      |
| (mlp)Sequential               | [2111, 192]                      | [2111, 2]      | 10,977   |
|     (0)Linear                | [2111, 192]                      | [2111, 50]     | 9,650    |
|     (1)ReLU                  | [2111, 50]                       | [2111, 50]     | --       |
|     (2)Dropout               | [2111, 50]                       | [2111, 50]     | --       |
|     (3)Linear                | [2111, 50]                       | [2111, 25]     | 1,275    |
|     (4)ReLU                  | [2111, 25]                       | [2111, 25]     | --       |
|     (5)Dropout               | [2111, 25]                       | [2111, 25]     | --       |
|     (6)Linear                | [2111, 25]                       | [2111, 2]      | 52       |
+---------------------------------+----------------------------------+----------------+----------+
2024-12-14 21:06:51,890 [INFO ] Train F1: 0.5747
2024-12-14 21:06:51,933 [INFO ] Validation F1: 0.2482
2024-12-14 21:06:51,934 [INFO ] Test F1: 0.4681
2024-12-14 21:06:52,027 [INFO ] Train F1: 0.5752
2024-12-14 21:06:52,087 [INFO ] Validation F1: 0.2427
2024-12-14 21:06:52,087 [INFO ] Test F1: 0.4709
…
2024-12-14 21:07:36,751 [INFO ] Val data GraphData(x=[115, 1], edge_index=[2, 17928], edge_attr=[17928, 5], y=[17928], readout='edge', loss_fn='ce', num_nodes=115, timestamps=[17928])
2024-12-14 21:07:36,752 [INFO ] Val inds tensor([13024, 13025, 13026,  ..., 17925, 17926, 17927])
2024-12-14 21:07:36,840 [INFO ] +-----------------------+--------------------------------+----------------+----------+
| Layer                 | Input Shape                    | Output Shape   | #Param   |
|-----------------------+--------------------------------+----------------+----------|
| RGCN                  | [111, 1], [2, 2111], [2111, 4] | [2111, 2]      | 90,543   |
| (node_emb)Linear    | [111, 1]                       | [111, 66]      | 132      |
| (edge_emb)Linear    | [2111, 4]                      | [2111, 66]     | 330      |
| (convs)ModuleList   | --                             | --             | 78,540   |
|     (0)RGCNConv    | [111, 66], [2, 2111], [2111]   | [111, 66]      | 39,270   |
|     (1)RGCNConv    | [111, 66], [2, 2111], [2111]   | [111, 66]      | 39,270   |
| (bns)ModuleList     | --                             | --             | 264      |
|     (0)BatchNorm1d | [111, 66]                      | [111, 66]      | 132      |
|     (1)BatchNorm1d | [111, 66]                      | [111, 66]      | 132      |
| (mlp)Sequential     | [2111, 198]                    | [2111, 2]      | 11,277   |
|     (0)Linear      | [2111, 198]                    | [2111, 50]     | 9,950    |
|     (1)ReLU        | [2111, 50]                     | [2111, 50]     | --       |
|     (2)Dropout     | [2111, 50]                     | [2111, 50]     | --       |
|     (3)Linear      | [2111, 50]                     | [2111, 25]     | 1,275    |
|     (4)ReLU        | [2111, 25]                     | [2111, 25]     | --       |
|     (5)Dropout     | [2111, 25]                     | [2111, 25]     | --       |
|     (6)Linear      | [2111, 25]                     | [2111, 2]      | 52       |
+-----------------------+--------------------------------+----------------+----------+
2024-12-14 21:07:37,029 [INFO ] Train F1: 0.5699
2024-12-14 21:07:37,085 [INFO ] Validation F1: 0.2462
2024-12-14 21:07:37,085 [INFO ] Test F1: 0.4611
2024-12-14 21:07:37,183 [INFO ] Train F1: 0.5865
2024-12-14 21:07:37,229 [INFO ] Validation F1: 0.2497
2024-12-14 21:07:37,229 [INFO ] Test F1: 0.4711
2024-12-14 21:07:37,342 [INFO ] Train F1: 0.5783
…
2024-12-14 21:08:22,710 [INFO ] Val data GraphData(x=[115, 1], edge_index=[2, 17928], edge_attr=[17928, 5], y=[17928], readout='edge', loss_fn='ce', num_nodes=115, timestamps=[17928])
2024-12-14 21:08:22,710 [INFO ] Val inds tensor([13024, 13025, 13026,  ..., 17925, 17926, 17927])
2024-12-14 21:08:22,847 [INFO ] +---------------------------------+----------------------------------+----------------+----------+
| Layer                           | Input Shape                      | Output Shape   | #Param   |
|---------------------------------+----------------------------------+----------------+----------|
| PNA                             | [111, 1], [2, 2111], [2111, 4]   | [2111, 2]      | 28,917   |
| (node_emb)Linear              | [111, 1]                         | [111, 20]      | 40       |
| (edge_emb)Linear              | [2111, 4]                        | [2111, 20]     | 100      |
| (convs)ModuleList             | --                               | --             | 24,320   |
|     (0)PNAConv               | [111, 20], [2, 2111], [2111, 20] | [111, 20]      | 12,160   |
|     (1)PNAConv               | [111, 20], [2, 2111], [2111, 20] | [111, 20]      | 12,160   |
| (emlps)ModuleList             | --                               | --             | --       |
| (batch_norms)ModuleList       | --                               | --             | 80       |
|     (0)BatchNorm             | [111, 20]                        | [111, 20]      | 40       |
|         (module)BatchNorm1d | [111, 20]                        | [111, 20]      | 40       |
|     (1)BatchNorm             | [111, 20]                        | [111, 20]      | 40       |
|         (module)BatchNorm1d | [111, 20]                        | [111, 20]      | 40       |
| (mlp)Sequential               | [2111, 60]                       | [2111, 2]      | 4,377    |
|     (0)Linear                | [2111, 60]                       | [2111, 50]     | 3,050    |
|     (1)ReLU                  | [2111, 50]                       | [2111, 50]     | --       |
|     (2)Dropout               | [2111, 50]                       | [2111, 50]     | --       |
|     (3)Linear                | [2111, 50]                       | [2111, 25]     | 1,275    |
|     (4)ReLU                  | [2111, 25]                       | [2111, 25]     | --       |
|     (5)Dropout               | [2111, 25]                       | [2111, 25]     | --       |
|     (6)Linear                | [2111, 25]                       | [2111, 2]      | 52       |
+---------------------------------+----------------------------------+----------------+----------+
2024-12-14 21:08:23,141 [INFO ] Train F1: 0.5898
2024-12-14 21:08:23,221 [INFO ] Validation F1: 0.2382
2024-12-14 21:08:23,221 [INFO ] Test F1: 0.4770
2024-12-14 21:08:23,374 [INFO ] Train F1: 0.5893
2024-12-14 21:08:23,423 [INFO ] Validation F1: 0.2418
2024-12-14 21:08:23,424 [INFO ] Test F1: 0.4791
…
