…
2024-12-14 11:46:30,885 [INFO ] Val data GraphData(x=[8037, 1], edge_index=[2, 8075], edge_attr=[8075, 5], y=[8075], readout='edge', loss_fn='ce', num_nodes=8037, timestamps=[8075])
2024-12-14 11:46:30,886 [INFO ] Val inds tensor([6020, 6021, 6022,  ..., 8072, 8073, 8074])
2024-12-14 11:46:31,088 [INFO ] +---------------------------------+-----------------------------------+----------------+----------+
| Layer                           | Input Shape                       | Output Shape   | #Param   |
|---------------------------------+-----------------------------------+----------------+----------|
| GATe                            | [6931, 1], [2, 6020], [6020, 4]   | [6020, 2]      | 28,577   |
| ├─(node_emb)Linear              | [6931, 1]                         | [6931, 64]     | 128      |
| ├─(edge_emb)Linear              | [6020, 4]                         | [6020, 64]     | 320      |
| ├─(convs)ModuleList             | --                                | --             | 16,896   |
| │    └─(0)GATConv               | [6931, 64], [2, 6020], [6020, 64] | [6931, 64]     | 8,448    |
| │    └─(1)GATConv               | [6931, 64], [2, 6020], [6020, 64] | [6931, 64]     | 8,448    |
| ├─(emlps)ModuleList             | --                                | --             | --       |
| ├─(batch_norms)ModuleList       | --                                | --             | 256      |
| │    └─(0)BatchNorm             | [6931, 64]                        | [6931, 64]     | 128      |
| │    │    └─(module)BatchNorm1d | [6931, 64]                        | [6931, 64]     | 128      |
| │    └─(1)BatchNorm             | [6931, 64]                        | [6931, 64]     | 128      |
| │    │    └─(module)BatchNorm1d | [6931, 64]                        | [6931, 64]     | 128      |
| ├─(mlp)Sequential               | [6020, 192]                       | [6020, 2]      | 10,977   |
| │    └─(0)Linear                | [6020, 192]                       | [6020, 50]     | 9,650    |
| │    └─(1)ReLU                  | [6020, 50]                        | [6020, 50]     | --       |
| │    └─(2)Dropout               | [6020, 50]                        | [6020, 50]     | --       |
| │    └─(3)Linear                | [6020, 50]                        | [6020, 25]     | 1,275    |
| │    └─(4)ReLU                  | [6020, 25]                        | [6020, 25]     | --       |
| │    └─(5)Dropout               | [6020, 25]                        | [6020, 25]     | --       |
| │    └─(6)Linear                | [6020, 25]                        | [6020, 2]      | 52       |
+---------------------------------+-----------------------------------+----------------+----------+
2024-12-14 11:46:31,529 [INFO ] Train F1: 0.0033
2024-12-14 11:46:31,577 [INFO ] Validation F1: 0.1244
2024-12-14 11:46:31,577 [INFO ] Test F1: 0.1768
2024-12-14 11:46:31,656 [INFO ] Train F1: 0.1261
2024-12-14 11:46:31,696 [INFO ] Validation F1: 0.4039
2024-12-14 11:46:31,697 [INFO ] Test F1: 0.4101
…
