…
2024-12-14 21:06:51,595 [INFO ] Val data GraphData(x=[115, 1], edge_index=[2, 17928], edge_attr=[17928, 5], y=[17928], readout='edge', loss_fn='ce', num_nodes=115, timestamps=[17928])
2024-12-14 21:06:51,596 [INFO ] Val inds tensor([13024, 13025, 13026,  ..., 17925, 17926, 17927])
2024-12-14 21:06:51,710 [INFO ] +---------------------------------+----------------------------------+----------------+----------+
| Layer                           | Input Shape                      | Output Shape   | #Param   |
|---------------------------------+----------------------------------+----------------+----------|
| GATe                            | [111, 1], [2, 2111], [2111, 4]   | [2111, 2]      | 28,577   |
| ├─(node_emb)Linear              | [111, 1]                         | [111, 64]      | 128      |
| ├─(edge_emb)Linear              | [2111, 4]                        | [2111, 64]     | 320      |
| ├─(convs)ModuleList             | --                               | --             | 16,896   |
| │    └─(0)GATConv               | [111, 64], [2, 2111], [2111, 64] | [111, 64]      | 8,448    |
| │    └─(1)GATConv               | [111, 64], [2, 2111], [2111, 64] | [111, 64]      | 8,448    |
| ├─(emlps)ModuleList             | --                               | --             | --       |
| ├─(batch_norms)ModuleList       | --                               | --             | 256      |
| │    └─(0)BatchNorm             | [111, 64]                        | [111, 64]      | 128      |
| │    │    └─(module)BatchNorm1d | [111, 64]                        | [111, 64]      | 128      |
| │    └─(1)BatchNorm             | [111, 64]                        | [111, 64]      | 128      |
| │    │    └─(module)BatchNorm1d | [111, 64]                        | [111, 64]      | 128      |
| ├─(mlp)Sequential               | [2111, 192]                      | [2111, 2]      | 10,977   |
| │    └─(0)Linear                | [2111, 192]                      | [2111, 50]     | 9,650    |
| │    └─(1)ReLU                  | [2111, 50]                       | [2111, 50]     | --       |
| │    └─(2)Dropout               | [2111, 50]                       | [2111, 50]     | --       |
| │    └─(3)Linear                | [2111, 50]                       | [2111, 25]     | 1,275    |
| │    └─(4)ReLU                  | [2111, 25]                       | [2111, 25]     | --       |
| │    └─(5)Dropout               | [2111, 25]                       | [2111, 25]     | --       |
| │    └─(6)Linear                | [2111, 25]                       | [2111, 2]      | 52       |
+---------------------------------+----------------------------------+----------------+----------+
2024-12-14 21:06:51,890 [INFO ] Train F1: 0.5747
2024-12-14 21:06:51,933 [INFO ] Validation F1: 0.2482
2024-12-14 21:06:51,934 [INFO ] Test F1: 0.4681
2024-12-14 21:06:52,027 [INFO ] Train F1: 0.5752
2024-12-14 21:06:52,087 [INFO ] Validation F1: 0.2427
2024-12-14 21:06:52,087 [INFO ] Test F1: 0.4709
…
