…
2024-12-14 21:06:07,660 [INFO ] Val data GraphData(x=[115, 1], edge_index=[2, 17928], edge_attr=[17928, 5], y=[17928], readout='edge', loss_fn='ce', num_nodes=115, timestamps=[17928])
2024-12-14 21:06:07,662 [INFO ] Val inds tensor([13024, 13025, 13026,  ..., 17925, 17926, 17927])
2024-12-14 21:06:07,815 [INFO ] +---------------------------------+----------------------------------+----------------+----------+
| Layer                           | Input Shape                      | Output Shape   | #Param   |
|---------------------------------+----------------------------------+----------------+----------|
| GINe                            | [111, 1], [2, 2111], [2111, 4]   | [2111, 2]      | 38,535   |
| ├─(node_emb)Linear              | [111, 1]                         | [111, 66]      | 132      |
| ├─(edge_emb)Linear              | [2111, 4]                        | [2111, 66]     | 330      |
| ├─(convs)ModuleList             | --                               | --             | 26,532   |
| │    └─(0)GINEConv              | [111, 66], [2, 2111], [2111, 66] | [111, 66]      | 13,266   |
| │    └─(1)GINEConv              | [111, 66], [2, 2111], [2111, 66] | [111, 66]      | 13,266   |
| ├─(emlps)ModuleList             | --                               | --             | --       |
| ├─(batch_norms)ModuleList       | --                               | --             | 264      |
| │    └─(0)BatchNorm             | [111, 66]                        | [111, 66]      | 132      |
| │    │    └─(module)BatchNorm1d | [111, 66]                        | [111, 66]      | 132      |
| │    └─(1)BatchNorm             | [111, 66]                        | [111, 66]      | 132      |
| │    │    └─(module)BatchNorm1d | [111, 66]                        | [111, 66]      | 132      |
| ├─(mlp)Sequential               | [2111, 198]                      | [2111, 2]      | 11,277   |
| │    └─(0)Linear                | [2111, 198]                      | [2111, 50]     | 9,950    |
| │    └─(1)ReLU                  | [2111, 50]                       | [2111, 50]     | --       |
| │    └─(2)Dropout               | [2111, 50]                       | [2111, 50]     | --       |
| │    └─(3)Linear                | [2111, 50]                       | [2111, 25]     | 1,275    |
| │    └─(4)ReLU                  | [2111, 25]                       | [2111, 25]     | --       |
| │    └─(5)Dropout               | [2111, 25]                       | [2111, 25]     | --       |
| │    └─(6)Linear                | [2111, 25]                       | [2111, 2]      | 52       |
+---------------------------------+----------------------------------+----------------+----------+
2024-12-14 21:06:08,127 [INFO ] Train F1: 0.5817
2024-12-14 21:06:08,183 [INFO ] Validation F1: 0.2431
2024-12-14 21:06:08,183 [INFO ] Test F1: 0.4677
2024-12-14 21:06:08,300 [INFO ] Train F1: 0.5759
2024-12-14 21:06:08,374 [INFO ] Validation F1: 0.2435
2024-12-14 21:06:08,374 [INFO ] Test F1: 0.4727
…
