…
2024-12-14 21:01:03,581 [INFO ] Val data GraphData(x=[8037, 1], edge_index=[2, 8075], edge_attr=[8075, 5], y=[8075], readout='edge', loss_fn='ce', num_nodes=8037, timestamps=[8075])
2024-12-14 21:01:03,582 [INFO ] Val inds tensor([6020, 6021, 6022,  ..., 8072, 8073, 8074])
2024-12-14 21:01:03,768 [INFO ] +---------------------------------+-----------------------------------+----------------+----------+
| Layer                           | Input Shape                       | Output Shape   | #Param   |
|---------------------------------+-----------------------------------+----------------+----------|
| PNA                             | [5878, 1], [2, 5183], [5183, 4]   | [5183, 2]      | 28,917   |
| ├─(node_emb)Linear              | [5878, 1]                         | [5878, 20]     | 40       |
| ├─(edge_emb)Linear              | [5183, 4]                         | [5183, 20]     | 100      |
| ├─(convs)ModuleList             | --                                | --             | 24,320   |
| │    └─(0)PNAConv               | [5878, 20], [2, 5183], [5183, 20] | [5878, 20]     | 12,160   |
| │    └─(1)PNAConv               | [5878, 20], [2, 5183], [5183, 20] | [5878, 20]     | 12,160   |
| ├─(emlps)ModuleList             | --                                | --             | --       |
| ├─(batch_norms)ModuleList       | --                                | --             | 80       |
| │    └─(0)BatchNorm             | [5878, 20]                        | [5878, 20]     | 40       |
| │    │    └─(module)BatchNorm1d | [5878, 20]                        | [5878, 20]     | 40       |
| │    └─(1)BatchNorm             | [5878, 20]                        | [5878, 20]     | 40       |
| │    │    └─(module)BatchNorm1d | [5878, 20]                        | [5878, 20]     | 40       |
| ├─(mlp)Sequential               | [5183, 60]                        | [5183, 2]      | 4,377    |
| │    └─(0)Linear                | [5183, 60]                        | [5183, 50]     | 3,050    |
| │    └─(1)ReLU                  | [5183, 50]                        | [5183, 50]     | --       |
| │    └─(2)Dropout               | [5183, 50]                        | [5183, 50]     | --       |
| │    └─(3)Linear                | [5183, 50]                        | [5183, 25]     | 1,275    |
| │    └─(4)ReLU                  | [5183, 25]                        | [5183, 25]     | --       |
| │    └─(5)Dropout               | [5183, 25]                        | [5183, 25]     | --       |
| │    └─(6)Linear                | [5183, 25]                        | [5183, 2]      | 52       |
+---------------------------------+-----------------------------------+----------------+----------+
2024-12-14 21:01:04,351 [INFO ] Train F1: 0.4672
2024-12-14 21:01:04,566 [INFO ] Validation F1: 0.4508
2024-12-14 21:01:04,566 [INFO ] Test F1: 0.4550
2024-12-14 21:01:05,087 [INFO ] Train F1: 0.4673
2024-12-14 21:01:05,181 [INFO ] Validation F1: 0.4508
2024-12-14 21:01:05,182 [INFO ] Test F1: 0.4548
…
